lenet.params (torch_old, 249543 bytes, 16 tensors)

conv1.pat f4 [6, 1, 25]
0.032824706 0.00787757 0.03348687 0.027309533 0.0028395073 0.0077618323 0.036664475 0.023167366
0.024939215 0.021223424 0.046350233 0.03192372 0.034792386 0.011973696 0.026994836 0.014531721
0.0119549045 0.004861084 0.05100527 0.029344328 0.029808624 0.006107303 0.032415304 0.009660469
0.023851003 0.02178868 0.006931493 0.015463398 0.046441074 0.03979127 0.003539428 0.01701616
0.040971182 0.020327192 0.007648216 0.040472362 0.009268547 0.026938038 0.04861518 0.03783308
0.0153343 0.019340144 0.046856713 0.024278069 0.043122705 0.010147738 0.03090692 0.032960348
0.005360943 0.0044438494 0.04909165 0.016690386 0.04495 0.005296337 0.042427555 0.019430947
0.038014818 0.04122382 0.0020734617 0.009111196 0.04059236 0.050571524 0.016146665 0.040308423
0.02721313 0.025058756 0.017394517 0.019704489 0.0199555 0.010159616 0.025891794 0.03253141
0.04168741 0.010825824 0.032798618 0.025848037 0.034470018 0.006111321 0.0043283943 0.04231784
0.012620742 0.0524381 0.013351973 0.029438993 0.04950407 0.0017687512 0.043835178 0.00070321956
0.049393553 0.033012185 0.0456806 0.04246946 0.014918109 0.0053772605 0.022723785 0.0007499222
0.046767578 0.009719651 0.010234449 0.0057553095 0.0033226986 0.032362055 0.011610795 0.022526793
0.012688183 0.009685577 0.043484822 0.015971713 0.026303606 0.015221857 0.04860694 0.037390716
0.009166651 0.025721142 0.024062062 0.009228858 0.037514314 0.045978848 0.017755015 0.038911805
0.014353168 0.034759995 0.0064943396 0.051967725 0.0076701716 0.0058520157 0.018077334 0.018791389
0.027802378 0.049891897 0.021990405 0.0022437929 0.0038666495 0.038190164 0.009924901 0.049659688
0.05073668 0.019781465 0.014615035 0.04215333 0.020694766 0.0033069856 0.032543574 0.04515208
0.02161735 0.028283793 0.04568019 0.030830065 0.045252208 0.02763932
00000000: 3373 063d ec10 013c 8729 093d 3eb8 df3c
00000010: 0717 3a3b f856 fe3b 7d2d 163d 7dc9 bd3c
00000020: 534d cc3c bfdc ad3c bed9 3d3d 72c2 023d
00000030: 7682 0e3d 522d 443c 4624 dd3c 7516 6e3c
00000040: 81de 433c ba49 9f3b e7ea 503d 8463 f03c
00000050: 3731 f43c c51f c83b e9c5 043d f246 1e3c
00000060: 2e63 c33c 2d7e b23c 9421 e33b 315a 7d3c
00000070: ff38 3e3d 2cfc 223d c0f5 673b 7965 8b3c
00000080: 66d1 273d 3685 a63c e39d fa3b 59c6 253d
00000090: 1bdb 173c 29ad dc3c b620 473d dcf6 1a3d
000000a0: b73c 7b3c 396f 9e3c d3ec 3f3d cde2 c63c
000000b0: 6fa1 303d b342 263c 8230 fd3c 6e01 073d
000000c0: d9aa af3b b69d 913b 5314 493d 47ba 883c
000000d0: 7e1d 383d e58c ad3b 84c8 2d3d a62d 9f3c
000000e0: 6db5 1b3d 4fda 283d eae2 073b 2047 153c
000000f0: 2d44 263d 1624 4f3d 0346 843c 721a 253d
00000100: 12ee de3c 0548 cd3c f27e 8e3c 4f6b a13c
00000110: b779 a33c 8574 263c 071b d43c a83f 053d
00000120: 6bc0 2a3d cc5e 313c d857 063d 43bf d33c
00000130: 6f30 0d3d 7a41 c83b 34d5 8d3b 7955 2d3d
00000140: 3bc7 4e3c 55c9 563d 3cc2 5a3c 0b2a f13c
00000150: c8c4 4a3d 71d5 e73a 848c 333d 4458 383a
00000160: e550 4a3d c937 073d 951b 3b3d 75f4 2d3d
00000170: 166b 743c bb33 b03b 3b27 ba3c 6d96 443a
00000180: 5c8f 3f3d 2c3f 1f3c 64ae 273c 0997 bc3b
00000190: a2c1 593b 138e 043d 343b 3e3c 1c8a b83c
000001a0: 19e2 4f3c 41b0 1e3c 241d 323d 1cd7 823c
000001b0: a97a d73c 1865 793c 1218 473d 0227 193d
000001c0: b92f 163c 25b5 d23c cd1d c53c a334 173c
000001d0: 9ca8 193d 5154 3c3d f772 913c fc61 1f3d
000001e0: 8d29 6b3c 7f60 0e3d 78ce d43b 1cdc 543d
000001f0: 1056 fb3b 44c2 bf3b eb16 943c 66f0 993c
00000200: d0c1 e33c 725b 4c3d 3925 b43c 990c 133b
00000210: 9d67 7d3b 4a6d 1c3d 0d9c 223c f567 4b3d
00000220: 44d1 4f3d bd0c a23c e673 6f3c f8a8 2c3d
00000230: 1288 a93c 03ba 583b 694c 053d 63f1 383d
00000240: de16 b13c 6ab3 e73c 271b 3b3d 558f fc3c
00000250: 615a 393d db6b e23c

bn1.weight f4 [6]
0.05269876 0.05269876 0.05269876 0.05269876 0.05269876 0.05269876
00000000: a8da 573d a8da 573d a8da 573d a8da 573d
00000010: a8da 573d a8da 573d

bn1.bias f4 [6]
0.0 0.0 0.0 0.0 0.0 0.0
00000000: 0000 0000 0000 0000 0000 0000 0000 0000
00000010: 0000 0000 0000 0000

bn1.running_mean f4 [6]
-384.8788 -384.90134 -384.94583 -384.89276 -384.892 -384.9424
00000000: 7d70 c0c3 5f73 c0c3 1179 c0c3 4672 c0c3
00000010: 2d72 c0c3 a178 c0c3

bn1.running_var f4 [6]
6532.9043 6535.931 6538.9434 6534.5566 6534.8193 6538.597
00000000: 3c27 cc45 733f cc45 8c57 cc45 7434 cc45
00000010: 8e36 cc45 c754 cc45

conv2.pat f4 [16, 6, 25]
0.03491888 0.03189966 0.04470384 0.005756583 0.022635125 0.03590873 0.0031329792 0.0061069466
0.0453303 0.021663275 0.013812861 0.0053863134 0.050512265 0.052020703 0.050351173 0.037632793
0.041924845 0.049611703 0.01967942 0.053303808 0.0068469523 0.024061045 0.026525022 0.03364938
0.048031013 0.042970657 0.0026280934 0.044339765 0.019318713 0.015679576 0.041474707 0.04518608
0.01148177 0.003953105 0.018414592 0.0077818073 0.023649605 0.00030376526 0.034705322 0.043106038
0.032630898 0.045861237 0.046079636 0.028335033 0.0141635155 0.01500701 0.048547387 0.049586855
0.03291757 0.03768407 0.01053076 0.011568667 0.010848848 0.037434112 0.00014022744 0.015361702
0.045845963 0.015719261 0.036826875 0.005267269 0.018543968 0.035297662 0.04672749 0.039313428
0.029466324 0.05742196 0.035295315 0.02474599 0.053433754 0.008657378 0.050045617 0.029309858
0.044510163 0.040789634 0.037762735 0.021429984 0.016684294 0.022310643 0.05460348 0.020753648
0.036026888 0.015393442 0.05007165 0.011885656 0.01092301 0.017596442 0.0042019193 0.03321417
0.045537308 0.036154576 -0.0063126567 0.042184193 -0.002533505 0.025146471 0.04048838 0.04261214
0.014076161 0.00438872 0.013678426 0.010587488 0.014972026 0.054367956 -0.0006782181 0.044027317
0.03880646 0.0016654049 0.008093471 0.04307473 0.027008332 0.033732552 0.018456694 0.051724702
0.02382517 0.016649842 0.024842773 -0.0056026005 0.021116288 -0.0077248933 0.042348254 0.0061003445
0.039687388 0.006554602 0.009657199 0.031678684 0.049923528 0.037326958 0.041152287 0.05177229
0.016227042 0.035779603 0.038822453 0.005519676 0.00687968 0.021983473 0.046693645 0.013114489
0.0016434548 0.035866126 0.03252492 0.016353488 0.050095886 0.007129943 -0.0028766885 0.004348701
0.04956664 0.048291575 0.014091765 0.022043647 0.009812641 0.03894669 0.006239081 0.029290203
0.010894987 0.00083698024 0.024231242 0.043070566 0.021693455 0.026147645 0.019259762 0.038698554
0.038597178 0.036979016 0.022254435 0.048639365 0.019290911 0.022514617 0.03339802 0.006349965
0.03782791 0.03463466 0.01723103 0.033719826 0.051691864 0.029731141 0.038817614 0.049380045
0.043122523 0.021767395 0.02549836 0.024396362 0.018707326 0.01563118 0.027363526 0.026248485
0.052824885 0.015033077 0.04454988 0.04447514 0.029829625 0.014140657 0.012925413 0.048529916
0.015734414 0.023444874 0.039100174 0.039971687 0.020767339 0.02473012 0.025420606 0.04398811
0.0473738 0.02797227 0.0013669822 0.035227973 0.009211449 0.014848492 0.00863306 0.024443792
0.008224371 0.041075107 0.013797948 0.016858347 0.026088448 0.028819658 0.012462555 -0.00025654878
0.015342638 0.035481893 0.020463511 0.019901257 0.011504884 0.048770864 0.009758058 0.037480153
0.041119426 0.013828703 0.01198473 0.027137216 0.01985366 0.016709324 0.021184947 0.0022943206
0.045281935 0.050352145 0.028843254 0.019313255 0.017480975 0.008372518 0.006579682 0.009458126
0.019376568 0.0117804 0.0065140524 0.012390191 0.043337725 0.033908397 0.035034105 0.036776118
0.005703778 0.01562745 0.0503489 0.04602316 0.008367426 0.044545982 0.05049483 0.010799322
00000000: 1907 0f3d 38a9 023d 601b 373d b8a1 bc3b
00000010: 4c6d b93c 0815 133d ab52 4d3b c81c c83b
00000020: 44ac 393d 2e77 b13c 574f 623c ac7f b03b
00000030: f3e5 4e3d a913 553d 083d 4e3d d824 1a3d
00000040: 63b9 2b3d a435 4b3d bc36 a13c 1855 5a3d
00000050: 665c e03b ab1b c53c 014b d93c efd3 093d
00000060: 2bbc 443d 0002 303d 173c 2c3b 9d9d 353d
00000070: 4742 9e3c 7472 803c 62e1 293d 0a15 393d
00000080: 091e 3c3c 0c89 813b 33da 963c 88fe fe3b
00000090: d1bc c13c af42 9f39 2b27 0e3d f58f 303d
000000a0: faa7 053d fed8 3b3d 00be 3c3d df1e e83c
000000b0: 170e 683c f6df 753c a0d9 463d 961b 4b3d
000000c0: 93d4 063d 9d5a 1a3d 3589 2c3c 828a 3d3c
000000d0: 5ebf 313c 8354 193d 040a 1339 a6af 7b3c
000000e0: fac8 3b3d aec5 803c c7d7 163d 0e99 ac3b
000000f0: 85e9 973c 4894 103d 5365 3f3d 1e07 213d
00000100: 5c63 f13c 4a33 6b3d d291 103d 1ab8 ca3c
00000110: 5add 5a3d add7 0d3c a2fc 4c3d 3a1b f03c
00000120: 4a50 363d 0813 273d 19ad 1a3d ef8d af3c
00000130: 80ad 883c cfc4 b63c e6a7 5f3d 8e03 aa3c
00000140: ee90 133d c634 7c3c ee17 4d3d 0ebc 423c
00000150: 6df6 323c 6a26 903c 41b0 893b 950b 083d
00000160: 5485 3a3d d216 143d 67da cebb 55c9 2c3d
00000170: 2909 26bb f9ff cd3c 25d7 253d 118a 2e3d
00000180: b39f 663c 40cf 8f3b 7a1b 603c 2577 2d3c
00000190: 3b4d 753c efb0 5e3d 72ca 31ba fd55 343d
000001a0: 86f3 1e3d b749 da3a 7a9a 043c 216f 303d
000001b0: 9440 dd3c 252b 0a3d 7e32 973c 48dd 533d
000001c0: 012d c33c 4065 883c 1283 cb3c 0596 b7bb
000001d0: 11fc ac3c 1a21 fdbb 5d75 2d3d 66e5 c73b
000001e0: 3e8f 223d fdc7 d63b 3a39 1e3c 82c1 013d
000001f0: 9d7c 4c3d 27e4 183d 4d8f 283d 2e0f 543d
00000200: 93ee 843c a28d 123d 4b04 1f3d 66de b43b
00000210: f06e e13b af16 b43c d641 3f3d 27de 563c
00000220: 3169 d73a 5ce8 123d da38 053d c0f7 853c
00000230: 5831 4d3d 4ca2 e93b d386 3cbb 8c7f 8e3b
00000240: 6406 4b3d 63cd 453d 25e1 663c e194 b43c
00000250: 33c5 203c 9086 1f3d 3471 cc3b 02f2 ef3c
00000260: e380 323c cb68 5b3a 9980 c63c c36a 303d
00000270: 79b6 b13c 9633 d63c a6c6 9d3c 6082 1e3d
00000280: 1318 1e3d 4f77 173d ef4e b63c 123a 473d
00000290: f907 9e3c 9370 b83c 5dcc 083d 5e13 d03b
000002a0: 70f1 1a3d 13dd 0d3d 1728 8d3c cd1d 0a3d
000002b0: d9ba 533d b98e f33c 38ff 1e3d bb42 4a3d
000002c0: 3ea1 303d 8951 b23c f0e1 d03c e1da c73c
000002d0: 1b40 993c f60c 803c 7929 e03c 1007 d73c
000002e0: e85e 583d 4c4d 763c ef79 363d 902b 363d
000002f0: 425d f43c 37ae 673c 1dc5 533c 4ec7 463d
00000300: 75e5 803c 770f c03c 8127 203d 5ab9 233d
00000310: 4420 aa3c d296 ca3c e03e d03c e02c 343d
00000320: 080b 423d 1a26 e53c 502c b33a 354b 103d
00000330: 9eeb 163c 1747 733c ae71 0d3c 593e c83c
00000340: 83bf 063c 5f3e 283d ca10 623c 841a 8a3c
00000350: 71b7 d53c 3417 ec3c bf2f 4c3c 6581 86b9
00000360: b05f 7b3c 7655 113d 18a3 a73c f607 a33c
00000370: fb7e 3c3c f5c3 473d 43e0 1f3c ca84 193d
00000380: d86c 283d c991 623c 9a5b 443c de4e de3c
00000390: 25a4 a23c fee1 883c 0e8c ad3c 505c 163b
000003a0: 8d79 393d 0d3e 4e3d b048 ec3c d536 9e3c
000003b0: 4334 8f3c e32c 093c 609a d73b 41f6 1a3c
000003c0: 9cbb 9e3c 9402 413c d573 d53b 3a00 4b3c
000003d0: e682 313d 88e3 0a3d ec7f 0f3d 8ea2 163d
000003e0: c2e6 ba3b 2305 803c a63a 4e3d c882 3c3d
000003f0: 8717 093c d975 363d abd3 4e3d a4ef 303c

bn2.weight f4 [16]
0.5695242 0.44094357 0.7726742 0.56021935 0.7795088 1.8820682 2.5429091 0.5366525
0.22841027 0.51882875 0.54753727 0.9655663 2.9938545 1.1289356 2.9249856 2.4125533
00000000: 57cc 113f 5bc3 e13e facd 453f 896a 0f3f
00000010: e48d 473f 9ce7 f03f 06bf 2240 0f62 093f
00000020: 62e4 693e f6d1 043f 672b 0c3f 5a2f 773f
00000030: 509b 3f40 f680 903f f732 3b40 4667 1a40

bn2.bias f4 [16]
-0.0811694 -0.103011325 -0.28967756 -0.16690174 -0.07249646 -0.5290691 -0.56963915 -0.05485263
-0.027458392 -0.16789751 -0.06643563 -0.0921996 -0.6034381 -0.28237614 -0.58488685 -0.4808044
00000000: 243c a6bd 9af7 d2bd 9e50 94be 4ae8 2abe
00000010: 0679 94bd 1371 07bf dfd3 11bf 27ad 60bd
00000020: 6cf0 e0bc 53ed 2bbe 670f 88bd 25d3 bcbd
00000030: eb7a 1abf 9b93 90be 25bb 15bf ff2b f6be

bn2.running_mean f4 [16]
-8.171708 -8.141779 -8.155629 -8.157169 -8.191074 -8.265512 -9.13486 -8.181911
-8.1531105 -8.17554 -8.131594 -8.273549 -13.41748 -8.130365 -11.446714 -9.524286
00000000: 51bf 02c1 ba44 02c1 757d 02c1 c483 02c1
00000010: a40e 03c1 8a3f 04c1 6328 12c1 1ce9 02c1
00000020: 2473 02c1 03cf 02c1 021b 02c1 7560 04c1
00000030: 00ae 56c1 fa15 02c1 be25 37c1 7a63 18c1

bn2.running_var f4 [16]
1.0645722 1.0717715 1.0436388 1.0618346 1.0198581 1.0208567 0.894431 1.0343809
1.0674487 1.0561006 1.0813074 1.0218952 1.5967963 1.0616 1.0722897 1.0044043
00000000: e743 883f cf2f 893f f595 853f 32ea 873f
00000010: b68a 823f 6fab 823f 6ef9 643f 9866 843f
00000020: 29a2 883f 4e2e 873f 4868 8a3f 76cd 823f
00000030: d263 cc3f 82e2 873f ca40 893f 5290 803f

fc1.weight f4 [120, 400]
-0.005687458 -0.01688368 -0.0310499 -0.030818159 0.017435953 0.0021831894 -0.002675871 -0.028841475
-0.004674398 0.009789434 0.015485391 0.006056159 -0.00031571533 0.021824224 0.021404298 0.0069066137
0.004331512 0.0023059365 -0.02882362 -0.02982782 0.0048873774 -0.03507566 0.020942042 0.0051296474
0.008380055 -0.009683058 0.001867109 -0.008226895 -0.0138483755 0.024765374 0.009567557 0.0077755786
-0.010205249 0.0062764823 0.0132495165 0.009206818 -5.5482196e-05 -0.003555421 0.01997931 0.028557122
0.0005899846 -0.008071537 -0.010297747 -0.016200969 -0.02514887 0.0023817073 -0.021728475 0.021250105
0.0090267435 0.004213288 -0.010969534 -0.041227214 -0.05105051 -0.009210551 0.036318738 0.0072048814
-0.0066319047 -0.045138594 0.0158375 0.013644342 0.012177964 -0.009789385 0.0019987386 0.06340068
0.058517728 0.013805179 0.012927066 0.019954689 -0.027543923 -0.040645905 -0.006856779 -0.018828848
0.04223602 0.023962993 0.007904182 -0.0046183774 -0.016886108 -0.0019035366 0.010208975 0.035278466
0.0152911125 0.010716463 -0.0059977327 0.0043154215 -8.779029e-06 0.014292451 0.0074191894 -0.0051032035
0.011512616 0.017885122 -0.007484591 -0.014490665 0.003336628 -0.026428988 -0.021291168 -0.0012723152
-0.024621543 0.0201447 0.00466393 0.0035504822 -0.015139688 -0.023693208 -0.03193362 -0.022596925
0.03270129 -0.014198244 -0.0065310155 -0.04126539 -0.00894564 -0.013516275 -0.0060193003 -0.018028209
-0.028305601 0.054586597 0.051614758 0.01610984 0.019881457 0.0075595346 -0.01607372 -0.054974895
0.004995374 -0.012256922 0.047640875 0.0233228 0.013202185 -0.032095138 -0.021248909 -0.05911055
-0.034071334 0.03160457 0.03068947 0.025207832 -0.05126757 0.026256362 0.09182939 0.07462345
0.00630282 -0.013563412 0.09056256 0.08916987 0.019785803 0.049755897 -0.010262992 -0.07571793
-0.0892419 -0.0027838883 -0.10156809 0.001690289 0.040010363 0.016930886 0.05978884 0.05976021
0.009150325 0.05057667 -0.008307886 0.14181778 0.030638982 -0.1863794 -0.059126813 -0.08133473
0.04967163 -0.017838871 -0.020439034 0.05482775 0.11222568 -0.015370561 -0.023342337 0.023337482
-0.061596215 -0.1180743 -0.00442411 -0.08280971 0.042445514 -0.089912064 0.015631914 -0.015597951
-0.010232405 -0.0071555893 0.00925469 0.029303823 0.013767174 0.020483585 -0.014856938 0.0115438355
-0.003321844 0.003177186 -0.008573876 -0.015196453 0.019053757 0.024067739 -0.0025270344 0.0043523647
0.0035659305 -0.016184803 -0.02566326 -0.006156847 -0.0027351838 0.03391351 -8.326085e-05 0.0016849745
-0.0020552878 1.9005201e-05 -0.00081415847 0.0065763188 0.014153647 -0.0010509846 3.418067e-05 -0.0087340325
0.0012750509 0.00092220167 -0.0007716284 -0.0097995475 -0.0047379853 0.012581881 0.009850394 0.0057439236
-0.00012685193 -0.0010973639 -0.004356542 -0.017011164 0.009991117 -0.003892527 0.013146739 0.0037366857
0.002958568 -0.011916357 -0.0029729933 -0.008266948 0.0046819556 0.043722115 0.0040323506 0.0058796965
-0.011156127 0.0044795144 -0.0018681511 0.00251125 -0.024231512 -0.015017492 0.02888432 0.03879336
-0.0015582497 0.00030680205 -0.007045837 -0.014908577 -0.043067254 0.015669093 -0.0075368346 0.02725576
-0.0027720844 0.0049441545 -0.020745335 -0.025980715 -0.023461875 -0.010021126 0.031703867 0.0094281295
00000000: db5d babb a54f 8abc 5c5c febc 5d76 fcbc
00000010: d8d5 8e3c d713 0f3b aa5d 2fbb f544 ecbc
00000020: b12b 99bb dd63 203c 70b6 7d3c be72 c63b
00000030: 9886 a5b9 b7c8 b23c 1158 af3c e050 e23b
00000040: 5bef 8d3b 321f 173b 831f ecbc 7959 f4bc
00000050: 4b26 a03b 7fab 0fbd a58e ab3c 9a16 a83b
00000060: 804c 093c b0a5 1ebc c8b9 f43a 19ca 06bc
00000070: 4ce4 62bc c1e0 ca3c 3ec1 1c3c 48ca fe3b
00000080: eb33 27bc f3aa cd3b 8014 593c 32d8 163c
00000090: 8eb5 68b8 1102 69bb a6ab a33c a0f0 e93c
000000a0: 32a9 1a3a 7b3e 04bc e2b7 28bc e5b7 84bc
000000b0: 0105 cebc 6b16 1c3b eaff b1bc b314 ae3c
000000c0: e8e4 133c 9f0f 8a3b 8fb9 33bc dedd 28bd
000000d0: 571a 51bd dae7 16bc f5c2 143d ed16 ec3b
000000e0: 7350 d9bb 3fe3 38bd a5bd 813c 858c 5f3c
000000f0: 1586 473c a863 20bc 45fd 023b 37d8 813d
00000100: 49b0 6f3d 1e2f 623c 0bcc 533c 0478 a33c
00000110: cba3 e1bc 527c 26bd d5ae e0bb f53e 9abc
00000120: adff 2c3d 0a4e c43c 8b80 013c c255 97bb
00000130: bc54 8abc 1780 f9ba 8b43 273c 2780 103d
00000140: 9387 7a3c 1b94 2f3c a188 c4bb 6168 8d3b
00000150: a449 13b7 e22a 6a3c ac1c f33b c638 a7bb
00000160: 699f 3c3c d283 923c 4d41 f5bb 416a 6dbc
00000170: 54ab 5a3b 9b81 d8bc d16a aebc d0c3 a6ba
00000180: 1eb3 c9bc 7f06 a53c e1d3 983b 35af 683b
00000190: 740c 78bc 4218 c2bc d4cc 02bd 301d b9bc
000001a0: caf1 053d c09f 68bc 2102 d6bb e605 29bd
000001b0: bc90 12bc 5e73 5dbc 8d3d c5bb e5af 93bc
000001c0: 26e1 e7bc 3296 5f3d ff69 533d c8f8 833c
000001d0: 70de a23c f9b5 f73b 09ad 83bc 5b2d 61bd
000001e0: 3cb0 a33b 42d1 48bc 1423 433d 750f bf3c
000001f0: fa4d 583c 3176 03bd 3112 aebc e71d 72bd
00000200: 628e 0bbd cb73 013d 7c68 fb3c a880 ce3c
00000210: f2fd 51bd 9517 d73c 0c11 bc3d 2ed4 983d
00000220: e387 ce3b 1339 5ebc dd78 b93d b19e b63d
00000230: d615 a23c d7cc 4b3d 1c26 28bc 0112 9bbd
00000240: 75c4 b6bd e571 36bb ee02 d0bd b08c dd3a
00000250: e8e1 233d a4b2 8a3c 25e5 743d 1fc7 743d
00000260: 3feb 153c 7b29 4f3d cd1d 08bc ae38 113e
00000270: 9afe fa3c 3eda 3ebe f52e 72bd d392 a6bd
00000280: 7b74 4b3d d322 92bc c36f a7bc 1093 603d
00000290: 94d6 e53d ced4 7bbc 6e38 bfbc 3f2e bf3c
000002a0: 504c 7cbd f0d0 f1bd 20f8 90bb 2398 a9bd
000002b0: 59db 2d3d d123 b8bd 800e 803c 8c8e 7fbc
000002c0: d1a5 27bc 6f79 eabb fca0 173c 920e f03c
000002d0: b78f 613c 31cd a73c 846a 73bc 5b22 3d3c
000002e0: 4bb3 59bb 5638 503b 7179 0cbc 8bfa 78bc
000002f0: a016 9c3c b529 c53c 9a9c 25bb 489e 8e3b
00000300: 63b2 693b fe95 84bc c23b d2bc 60bf c9bb
00000310: c540 33bb e5e8 0a3d 549c aeb8 5dda dc3a
00000320: 02b2 06bb 5c6d 9f37 406d 55ba 297e d73b
00000330: b3e4 673c 31c1 89ba 375d 0f38 3019 0fbc
00000340: 9c1f a73a e8bf 713a 1b47 4aba 488e 20bc
00000350: 1a41 9bbb 3c24 4e3c 8c63 213c 8637 bc3b
00000360: 8e03 05b9 6cd5 8fba 53c1 8ebb ff5a 8bbc
00000370: c8b1 233c c419 7fbb 6c65 573c 2fe3 743b
00000380: 89e4 413b d33c 43bc 8dd6 42bb 1872 07bc
00000390: 176b 993b f615 333d cf21 843b 78aa c03b
000003a0: 30c8 36bc e4c8 923b c0dc f4ba c993 243b
000003b0: 2a81 c6bc ed0b 76bc cf9e ec3c c9e5 1e3d
000003c0: 2f3e ccba 46da a039 c4e0 e6bb 1b43 74bc
000003d0: 4a67 30bd 785c 803c 8df7 f6bb 7947 df3c
000003e0: dcab 35bb 9302 a23b 1ff2 a9bc 82d5 d4bc
000003f0: 1e33 c0bc a62f 24bc eadb 013d 7178 1a3c

fc1.bias f4 [120]
-0.01858755 -0.013343139 0.0043597934 -0.008709 -0.009964084 0.0027852172 -0.06821485 -0.006957849
-0.036711223 -0.014544482 -0.021623397 -0.0056367517 -0.006004185 -0.04492274 -0.046206202 0.019942403
0.008202137 0.0059378557 0.004222716 -0.07412396 -0.030053584 -0.04187191 -0.0031233244 -0.0140472185
-0.03480551 0.01731781 0.02814685 -0.024548162 0.023950513 -0.009691034 -0.0146263065 -0.029004045
-0.056610856 -0.0035910506 0.008678912 -0.015925556 0.0054879086 -0.043900155 0.012365156 -0.042805832
-0.027009262 0.0006306247 0.01338846 0.044452857 -0.054943386 -0.01688944 -0.030039217 -0.003876897
-0.019576177 -0.0023359598 0.022916751 0.09362287 0.010243119 0.011235376 0.012236127 -0.063200936
-0.0143476715 0.048722774 -0.011510035 0.0009306651 -0.13832854 0.032104213 -0.01146898 -0.019966532
-0.072031766 -0.00085635966 -0.0787229 0.016960368 0.0032755139 -0.018615475 0.0031648963 -0.014836989
-0.051804926 -0.030761514 -0.05538798 0.02479822 0.012931489 0.06102875 -0.027831621 -0.011289037
-0.0175431 -0.05187529 -0.04014079 -0.013395216 -0.013785252 -0.028792989 -0.047947854 0.042538986
-0.043013874 0.034458358 -0.025779136 -0.036794696 -0.018487869 0.034521956 0.015668496 0.017352356
0.0028250057 0.024673339 -0.07376474 0.0124806715 0.02200494 0.018636106 -0.0015695029 -0.0050839717
-0.05538045 -0.067493096 0.030183107 -0.015221785 0.025813723 -0.029919166 0.0010825335 0.009938073
-0.012472424 0.06655101 -0.03720154 0.011995196 0.04954189 0.014004488 -0.008650048 -0.057178576
00000000: eb44 98bc 2e9d 5abc 99dc 8e3b 32b0 0ebc
00000010: 6640 23bc 3188 363b 3ab4 8bbd abfe e3bb
00000020: 825e 16bd fb4b 6ebc 8d23 b1bc 80b4 b8bb
00000030: c1be c4bb e800 38bd b742 3dbd 405e a33c
00000040: 4262 063c 5892 c23b b65e 8a3b 4ece 97bd
00000050: ef32 f6bc e181 2bbd b0b0 4cbb 4e26 66bc
00000060: 3990 0ebd 14de 8d3c 3994 e63c 3a19 c9bc
00000070: de33 c43c 25c7 1ebc 2da3 6fbc e499 edbc
00000080: c9e0 67bd d557 6bbb ff31 0e3c 5076 82bc
00000090: ead3 b33b a6d0 33bd 3997 4a3c 2b55 2fbd
000000a0: 8742 ddbc 8250 253a 455b 5b3c 3314 363d
000000b0: 510c 61bd b95b 8abc ce14 f6bc 8a13 7ebb
000000c0: 385e a0bc e716 19bb e9bb bb3c 59bd bf3d
000000d0: c1d2 273c 9514 383c 097a 483c 7e6f 81bd
000000e0: 7f12 6bbc 8891 473d 9694 3cbc e1f7 733a
000000f0: ffa5 0dbe b57f 033d 64e8 3bbc da90 a3bc
00000100: 6485 93bd 537d 60ba 7939 a1bd 78f0 8a3c
00000110: 01aa 563b 7b7f 98bc 266a 4f3b d816 73bc
00000120: 6731 54bd 92ff fbbc 82de 62bd a325 cb3c
00000130: 99de 533c 48f9 793d 24ff e3bc a7f5 38bc
00000140: 8cb6 8fbc 2f7b 54bd ab6a 24bd 9c77 5bbc
00000150: 8adb 61bc 46df ebbc f864 44bd 5c3d 2e3d
00000160: 512f 30bd 3524 0d3d c42e d3bc 09b6 16bd
00000170: df73 97bc e566 0d3d 385b 803c 8726 8e3c
00000180: bb23 393b be1f ca3c f811 97bd bb7b 4c3c
00000190: b443 b43c bfaa 983c c7b7 cdba 7297 a6bb
000001a0: 9cd6 62bd d239 8abd 9042 f73c cb64 79bc
000001b0: 4d77 d33c 0a19 f5bc cce3 8d3a 4dd3 223c
000001c0: 2359 4cbc e54b 883d a460 18bd 8087 443c
000001d0: 70ec 4a3d 1473 653c eeb8 0dbc 1534 6abd

fc2.weight f4 [84, 120]
-0.006959845 0.034039304 0.11313205 0.056622516 0.044024378 0.026451988 -0.035412878 0.020608269
0.009787972 0.015883623 -0.01846464 0.006497865 0.059095368 -0.009256824 0.001200563 0.057392992
-0.007887315 0.06435134 -0.037993424 -0.07648881 -0.018919632 -0.047741186 0.061842095 0.045099057
0.04041517 -0.039682377 -0.10444305 0.01145677 -0.008218059 -0.03439894 0.014546932 0.046618156
-0.00745805 0.05469616 0.012916447 0.010592032 -0.07413321 -0.030640423 -0.035627484 -0.03255839
0.049221303 0.118145674 -0.0073489114 -0.085062906 -0.052634373 -0.02060194 0.011187373 0.09180247
0.01751235 0.0775102 -0.031877473 0.026069338 -0.10128275 0.0764177 0.011022587 0.005648742
-0.099925384 0.06360774 0.025653388 0.013665293 -0.07513625 0.05014637 -0.009704578 0.07294766
-0.038578257 -0.0116916755 -0.0638445 -0.02542953 -0.0054251384 -0.064954974 -0.0041554994 -0.009376957
-0.008994344 0.09152826 -0.0531802 0.0062155793 0.024450636 0.05686789 -0.079851754 0.11058523
0.036819648 -0.0022482192 -0.075686455 0.06294271 -0.040151075 0.029828286 0.07550475 -0.06230289
-0.027104517 -0.06497369 0.00565298 0.073349826 0.030271979 -0.051713906 -0.07509362 -0.014099551
0.09429589 0.02263864 -0.040683493 -0.086445175 -0.050752994 0.11455451 -0.052599855 0.121564664
0.03568414 -0.0325721 -0.02040765 -0.020460753 -0.10353123 -0.0021945387 0.018346094 -0.021454036
0.02367369 -0.08760109 0.001368419 0.04966683 0.010719965 0.018863253 -0.026137393 0.08471176
0.042576164 -0.029091433 -0.038230084 0.012226796 0.0015726008 0.016186858 -0.1121914 -0.023042433
0.0989871 -0.044484034 0.022651808 -0.013990477 0.00793302 0.004428443 0.039491303 0.055029538
-0.095916264 -0.013511419 0.05803793 0.104150385 -0.0420428 -0.041400183 0.02723467 0.006746236
-0.04213267 -0.10197928 0.012034455 0.0034836682 -0.034055274 -0.029265217 -0.057024643 0.019797822
-0.044699196 0.013978633 0.012277385 0.0787963 -0.13020368 -0.03966767 0.030612348 0.027326157
0.1206947 -0.012106635 0.06971077 -0.044509154 -0.08982562 0.004689866 -0.0528086 -0.06172364
0.01655602 -0.10183514 0.08036572 0.08256045 0.03803928 0.023523754 0.0025308775 -0.010616428
0.0029962426 -0.11224237 0.011634939 0.089452885 -0.0012089518 0.04347385 -0.101849556 -0.04937627
-0.04564181 0.02775965 -0.037318636 0.004010948 -0.030956555 -0.015835142 0.010230174 0.016203294
-0.024296556 -0.08298416 0.095369086 -0.048037272 -0.05359129 0.09027651 0.0087310895 0.007892022
-0.079406224 0.08501635 -0.079772435 0.07745126 0.0036945348 0.013809438 -0.024815127 -0.020016383
0.06980825 0.037883565 0.07740523 0.0048493124 0.10512219 -0.02894934 0.010853473 -0.03676295
0.0003121294 -0.00044300023 -0.000551252 -0.09246188 -0.046626557 0.008632228 -0.04576555 0.054900836
-0.0058752866 0.19376537 0.02653854 -0.010795786 0.08272693 -0.0058628824 0.03384388 0.13330536
-0.090280734 0.055411763 0.033647493 0.029552145 -0.07097142 -0.03399039 -0.0930093 -0.02279779
-0.05367834 0.010010819 0.09516347 0.118703954 -0.041603178 0.067328714 0.051396698 -0.091413565
0.040618576 -0.001320213 -0.03736248 0.15288445 -0.025790446 -0.1215466 0.00086685724 -0.10443763
00000000: 690f e4bb cc6c 0b3d c7b1 e73d 03ed 673d
00000010: e852 343d d7b1 d83c 180d 11bd acd2 a83c
00000020: bb5d 203c 5f1e 823c 2843 97bc 0bec d43b
00000030: fc0d 723d efa9 17bc 365c 9d3a ea14 6b3d
00000040: cc39 01bc a3ca 833d fe9e 1bbd 2aa6 9cbd
00000050: 58fd 9abc 438c 43bd 234e 7d3d cab9 383d
00000060: 618a 253d fd89 22bd 3de6 d5bd 2db5 3b3c
00000070: 0aa5 06bc e7e5 0cbd 4156 6e3c aef2 3e3d
00000080: a862 f4bb 1509 603d 819f 533c 348a 2d3c
00000090: 27d3 97bd a001 fbbc 20ee 11bd f25b 05bd
000000a0: 479c 493d 5cf6 f13d 23cf f0bb 7635 aebd
000000b0: 2497 57bd 66c5 a8bc 3e4b 373c ef02 bc3d
000000c0: 0f76 8f3c abbd 9e3d f491 02bd 5d8f d53c
000000d0: 556d cfbd e280 9c3d 1598 343c 1519 b93b
000000e0: aea5 ccbd c644 823d 0e27 d23c 65e4 5f3c
000000f0: 09e1 99bd 4866 4d3d f3ff 1ebc 9565 953d
00000100: 3c04 1ebd 718e 3fbc e8c0 82bd 9751 d0bc
00000110: 5cc5 b1bb 1d07 85bd db2a 88bb cfa1 19bc
00000120: 035d 13bc 2b73 bb3d 7bd3 59bd 0fac cb3b
00000130: b34c c83c 4eee 683d 5189 a3bd 827a e23d
00000140: 33d0 163d dc56 13bb 8001 9bbd 1ce8 803d
00000150: 7475 24bd 735a f43c 3ca2 9a3d 5131 7fbd
00000160: 4b0a debc ed10 85bd a23c b93b 6f38 963d
00000170: f1fc f73c f6d1 53bd afca 99bd ce01 67bc
00000180: 341e c13d ab74 b93c bca3 26bd 2b0a b1bd
00000190: 5fe2 4fbd 8e9b ea3d f272 57bd e5f6 f83d
000001a0: 8829 123d 536a 05bd f22d a7bc 4f9d a7bc
000001b0: 2e08 d4bd 40d2 0fbb 8c4a 963c 60c0 afbc
000001c0: 54ef c13c 3368 b3bd 865c b33a 726f 4b3d
000001d0: cba2 2f3c 1c87 9a3c 161e d6bc 5c7d ad3d
000001e0: 5864 2e3d 2851 eebc 2697 1cbd e652 483c
000001f0: ba1f ce3a 4d9a 843c 9bc4 e5bd 7cc3 bcbc
00000200: c0b9 ca3d e434 36bd 4990 b93c 5038 65bc
00000210: 7ff9 013c 791c 913b a2c1 213d a766 613d
00000220: bf6f c4bd 005f 5dbc 2eb9 6d3d cc4c d53d
00000230: 1235 2cbd 3d93 29bd 3e1b df3c 870f dd3b
00000240: 4e93 2cbd 83da d0bd 2a2c 453c 414e 643b
00000250: 8b7d 0bbd 9cbd efbc ac92 69bd 0b2f a23c
00000260: 8116 37bd a306 653c 1627 493c f45f a13d
00000270: 1d54 05be 917a 22bd bfc6 fa3c 1bdb df3c
00000280: c82e f73d e85a 46bc 85c4 8e3d 3b4f 36bd
00000290: 7ff6 b7bd 73ad 993b d54d 58bd edd1 7cbd
000002a0: 7ea0 873c f18e d0bd c896 a43d 7415 a93d
000002b0: 13cf 1b3d e3b4 c03c 14dd 253b 87f0 2dbc
000002c0: 9c5c 443b 54df e5bd 79a0 3e3c 1333 b73d
000002d0: b175 9eba a311 323d 8096 d0bd c63e 4abd
000002e0: e8f2 3abd 3568 e33c 6ddb 18bd 456e 833b
000002f0: 9a98 fdbc b3b8 81bc 769c 273c c5bc 843c
00000300: 9209 c7bc 99f3 a9bd de50 c33d bbc2 44bd
00000310: 8a82 5bbd e4e2 b83d d80c 0f3c 8a4d 013c
00000320: bb9f a2bd 0d1d ae3d bb5f a3bd c49e 9e3d
00000330: 0220 723b fb40 623c 1849 cbbc 66f9 a3bc
00000340: a1f7 8e3d cc2b 1b3d a286 9e3d fbe6 9e3b
00000350: 4e4a d73d 2b27 edbc c4d2 313c bf94 16bd
00000360: 4da5 a339 7c42 e8b9 e581 10ba a75c bdbd
00000370: 7dfb 3ebd 306e 0d3c a874 3bbd b3df 603d
00000380: 7a85 c0bb 6e6a 463e 5a67 d93c cfe0 30bc
00000390: bd6c a93d 6c1d c0bb e19f 0a3d 3381 083e
000003a0: 1be5 b8bd 72f7 623d f4d1 093d 5717 f23c
000003b0: 7759 91bd 8239 0bbd a97b bebd 6ec2 babc
000003c0: d2dd 5bbd 6b04 243c 11e5 c23d 0f1b f33d
000003d0: 1868 2abd a3e3 893d 5885 523d 0937 bbbd
000003e0: aa5f 263d ff0a adba 6609 19bd be8d 1c3e
000003f0: 7c46 d3bc 6ced f8bd ce3d 633a 65e3 d5bd

fc2.bias f4 [84]
-0.01287104 -0.024469608 0.00028597895 -0.009355882 0.04394574 0.03501217 0.0018724799 0.008956658
0.009287024 0.008719766 -0.020324906 0.023864595 0.018098466 0.048066996 0.023297727 0.047447626
0.009202525 0.112035 0.046804383 0.00025149836 0.024729397 0.046672184 0.01329875 0.0097653195
0.04476086 0.017469972 0.034519713 0.005674635 0.074541524 0.034614023 0.13128527 -0.008963329
-0.018939199 0.0020329447 0.040639948 0.017324323 -0.0006939085 0.041941624 0.0041980706 0.08074483
-0.03695408 -0.020315623 0.0085715605 -0.0060548172 0.009073893 0.03377131 -0.01304206 0.035134386
-0.012793011 0.039345227 0.007586773 0.0897287 0.071119 0.054258477 -0.01046259 0.008653591
0.03649674 0.010694565 0.0738769 -0.007679364 0.05078052 0.031623863 -0.021535078 -0.016429355
0.030217526 -0.021528548 -0.0055738706 0.05608671 0.07723141 -0.00928177 0.012761976 -0.011794914
-0.020471172 0.01414832 0.0060738004 0.0028261219 0.07131031 0.082899995 0.04855156 -0.014480203
-0.009087309 0.037338007 -0.011474481 0.017969614
00000000: 0ee1 52bc 7d74 c8bc 72ef 9539 6a49 19bc
00000010: 7300 343d ec68 0f3d 006e f53a f2be 123c
00000020: 9a28 183c 59dd 0e3c 6b80 a6bc af7f c33c
00000030: 3c43 943c e6e1 443d e0da be3c 7158 423d
00000040: 30c6 163c 9b72 e53d f4b5 3f3d 8adb 8339
00000050: 4e95 ca3c 552b 3f3d 00e3 593c b8fe 1f3c
00000060: 2a57 373d 301d 8f3c 8b64 0d3d 4af2 b93b
00000070: 3aa9 983d 6fc7 0d3d a56f 063e edda 12bc
00000080: 6126 9bbc 273b 053b 1376 263d bdeb 8d3c
00000090: 69e7 35ba fbca 2b3d f88f 893b 8c5d a53d
000000a0: 295d 17bd f36c a6bc bb6f 0c3c 7d67 c6bb
000000b0: aaaa 143c c953 0a3d 5dae 55bc 13e9 0f3d
000000c0: c799 51bc 7628 213d 779a f83b aec3 b73d
000000d0: d7a6 913d 233e 5e3d 486b 2bbc cbc7 0d3c
000000e0: 9b7d 153d 4238 2f3c c64c 973d 2da3 fbbb
000000f0: 3cff 4f3d 0688 013d 556a b0bc db96 86bc
00000100: bf8a f73c a35c b0bc 04a5 b6bb 2ebb 653d
00000110: 802b 9e3d 9112 18bc 9b17 513c 743f 41bc
00000120: 29b3 a7bc 5bce 673c bb06 c73b 7536 393b
00000130: 240b 923d 79c7 a93d 00de 463d 603e 6dbc
00000140: f0e2 14bc bdef 183d 76ff 3bbc 0335 933c

fc3.weight f4 [10, 84]
0.027703807 -0.31313694 -0.1870964 -0.32821608 0.26052558 0.17818499 -0.0083574755 0.09679378
0.044261653 -0.31824756 -0.012097367 -0.13978826 0.22634082 0.2224404 -0.18659823 0.35100406
0.08693377 0.15319242 -0.16719034 -0.032631196 0.17026514 -0.2813001 0.12901205 -0.10461108
-0.06920281 0.15795468 0.026305513 -0.13035414 0.21027192 0.15711772 0.2614787 -0.28493816
-0.05891624 -0.15280344 -0.018116206 0.066813245 0.01571954 -0.11554813 -0.13221131 -0.16085382
0.3396028 -0.27660972 -0.16198628 -0.023662152 0.04561726 0.12362466 -0.15647225 0.3435672
-0.0025266097 0.33923164 -0.14600734 -0.12180268 0.34751204 -0.13335897 0.00916548 0.13877432
0.28095064 -0.15179959 -0.17216468 -0.24340512 0.2470841 0.030005602 0.03911521 0.08039154
0.0029723975 -0.034195777 -0.5565112 -0.21970496 0.391267 -0.24582161 -0.55073243 -0.107080095
-0.10021528 -0.13757886 -0.35698697 -0.07675118 0.118803315 0.067403756 0.41443864 -0.078432135
0.16567157 0.5565738 -0.2347757 0.39946848 0.2635247 -0.07425528 -0.010871921 0.0767166
0.08759068 0.24235313 -0.008376905 -0.23936665 -0.22544855 -0.103180505 -0.07012852 0.07959941
-0.24546443 -0.19292057 0.2714233 0.40626016 -0.06770144 -0.34735796 -0.11968999 -0.017937442
-0.10274329 -0.023030858 -0.072684884 0.16205251 0.062197786 -0.056216776 -0.18509817 0.085707076
-0.23258865 0.0019035296 -0.06699175 0.48098737 0.10355225 -0.06169645 -0.10258877 0.020854708
-0.040768117 -0.24414499 -0.20956397 -0.12228407 -0.35926655 0.15495779 0.21144918 0.048163924
0.21561095 -0.12396779 -0.16794007 0.099643566 -0.084234826 -0.01350242 0.11944494 -0.26950115
-0.2895069 0.08326498 -0.025234917 0.36662945 0.47483534 0.066669285 0.2658508 0.48191857
-0.11219143 0.06744736 -0.16959392 -0.13992067 -0.11428613 0.2871372 0.2258131 -0.14638543
-0.20075372 -0.19580545 0.2329918 -0.039170295 -0.064100735 0.3861289 -0.16132994 0.08218087
-0.23395629 -0.08620525 -0.13459 0.31679246 -0.22442828 -0.011396305 -0.06087062 0.04399189
0.16256747 0.1247112 -0.36248654 -0.34250322 0.23226774 0.21820323 0.18780734 -0.11143734
0.10892772 -0.4278688 -0.11067567 0.017859317 -0.0203293 0.30630153 0.29339513 -0.3185069
0.26449355 0.12748201 0.44127643 0.059443 -0.2851916 -0.2642384 -0.3725305 -0.26756018
0.40046367 0.09140982 0.08122364 0.0989245 -0.008619937 0.015257164 -0.152946 0.19981635
-0.16428058 0.13737656 -0.28437802 0.21436258 -0.048579656 -0.055687327 0.65994334 -0.32724446
-0.048787765 -0.023228023 0.112859964 0.117591985 0.14655025 -0.14733575 0.08400296 0.09895394
-0.07779755 0.40224501 0.48158568 -0.040868364 0.20024392 -0.04568587 -0.15946764 -0.12980613
-0.12436875 0.18606862 -0.2944346 -0.19614217 -0.3849542 -0.31315 -0.086604275 0.42055345
0.22489387 -0.22668491 -0.11837666 -0.19090614 -0.10784747 -0.18324429 0.52424335 0.09498674
-0.19135459 0.22761115 0.23556075 0.27093595 -0.27632317 -0.10849611 -0.17299227 -0.12486048
0.17075922 -0.21548156 -0.22230673 -0.15683536 -0.023161741 -0.10853372 0.49312297 -0.21472235
00000000: 18f3 e23c 7c53 a0be 3396 3fbe f00b a8be
00000010: 9c63 853e 2076 363e cbed 08bc d13b c63d
00000020: b54b 353d 58f1 a2be 0934 46bc a724 0fbe
00000030: e3c5 673e 6bc7 633e 9b13 3fbe ceb6 b33e
00000040: 550a b23d 79de 1c3e f233 2bbe 4aa8 05bd
00000050: fc59 2e3e 9106 90be bc1b 043e 553e d6bd
00000060: 34ba 8dbd dfbe 213e a97e d73c 8e7b 05be
00000070: 8651 573e 78e3 203e 89e0 853e 6ae3 91be
00000080: 2852 71bd 8178 1cbe 7068 94bc 62d5 883d
00000090: 44c6 803c 7fa4 ecbd 6762 07be ddb6 24be
000000a0: 6be0 ad3e ca9f 8dbe bbdf 25be 21d7 c1bc
000000b0: 2ad9 3a3d ed2e fd3d 433a 20be 0ae8 af3e
000000c0: 7a95 25bb c5af ad3e f382 15be af73 f9bd
000000d0: 19ed b13e 418f 08be cf2a 163c db1a 0e3e
000000e0: c3d8 8f3e 5a71 1bbe f04b 30be 313f 79be
000000f0: 9d03 7d3e 4fce f53c 4537 203d 52a4 a43d
00000100: 8ecc 423b df10 0cbd 8577 0ebf 56fa 60be
00000110: 2654 c83e a9b8 7bbe cdfc 0cbf cf4c dbbd
00000120: ab3d cdbd 79e1 0cbe ffc6 b6be b92f 9dbd
00000130: 274f f33d fb0a 8a3d 4d31 d43e 07a1 a0bd
00000140: cfa5 293e 9f7b 0e3f 0b69 70be 2287 cc3e
00000150: b6ec 863e 2713 98bd 2420 32bc 981d 9d3d
00000160: be62 b33d 6b2b 783e 493f 09bc 881c 75be
00000170: fcdb 66be 4d50 d3bd 8b9f 8fbd 0405 a33d
00000180: 075b 7bbe f88c 45be fff7 8a3e 5501 d03e
00000190: 0da7 8abd e7d8 b1be 0720 f5bd 8bf1 92bc
000001a0: 136b d2bd 36ab bcbc d0db 94bd 18f1 253e
000001b0: 1bc3 7e3d 9043 66bd 608a 3dbe 3187 af3d
000001c0: b82b 6ebe db7f f93a f832 89bd fa43 f63e
000001d0: 3413 d43d 6bb5 7cbd 101a d2bd 7ed7 aa3c
000001e0: 78fc 26bd 2501 7abe f097 56be 1270 fabd
000001f0: c9f1 b7be 41ad 1e3e 2286 583e 8947 453d
00000200: 1ec9 5c3e d3e2 fdbd 7bf8 2bbe ed11 cc3d
00000210: 4f83 acbd 4139 5dbc 8c9f f43d 0efc 89be
00000220: 403a 94be d486 aa3d 75b9 cebc dbb6 bb3e
00000230: 9e1d f33e e889 883d 991d 883e 08be f63e
00000240: 9fc4 e5bd d721 8a3d 07aa 2dbe 5d47 0fbe
00000250: d90e eabd a603 933e 8d3b 673e 10e6 15be
00000260: 6292 4dbe 3981 48be 6795 6e3e 0871 20bd
00000270: 3f47 83bd b0b2 c53e ad33 25be 724e a83d
00000280: 3d92 6fbe 618c b0bd f6d1 09be 9f32 a23e
00000290: 87d0 65be 91b7 3abc 7953 79bd d730 343d
000002a0: 1678 263e 9668 ff3d d697 b9be 955c afbe
000002b0: 98d7 6d3e ab70 5f3e 9150 403e 4339 e4bd
000002c0: 7f15 df3d 9f11 dbbe eda9 e2bd b44d 923c
000002d0: a289 a6bc 8ed3 9c3e e337 963e 5613 a3be
000002e0: b36b 873e a58a 023e fcee e13e 817a 733d
000002f0: a204 92be 414a 87be 51bc bebe a6fd 88be
00000300: 9309 cd3e 1235 bb3d 9458 a63d ee98 ca3d
00000310: a33a 0dbc 2ff9 793c e09d 1cbe a89c 4c3e
00000320: 2b39 28be 71ac 0c3e ff99 91be dd81 5b3e
00000330: 76fb 46bd 6518 64bd 0cf2 283f 968c a7be
00000340: aed5 47bd b248 bebc 2023 e73d 11d4 f03d
00000350: 4511 163e 2fdf 16be be09 ac3d 5da8 ca3d
00000360: 5254 9fbd 0ff3 cd3e 6692 f63e 9665 27bd
00000370: be0c 4d3e 1b21 3bbd 7c4b 23be e6eb 04be
00000380: 0bb5 febd c688 3e3e 22c0 96be 7ed9 48be
00000390: b818 c5be 3255 a0be 955d b1bd c852 d73e
000003a0: 944a 663e 1720 68be 766f f2bd e67c 43be
000003b0: 22df dcbd 64a4 3bbe d034 063f 6888 c23d
000003c0: 75f2 43be e612 693e d636 713e 1eb8 8a3e
000003d0: 3b7a 8dbe 3533 debd e324 31be dab6 ffbd
000003e0: 81db 2e3e 33a7 5cbe 60a4 63be 7399 20be
000003f0: b1bd bdbc ed46 debd 9d7a fc3e 2de0 5bbe

fc3.bias f4 [10]
0.07130171 -0.056946594 0.051183473 -0.023569057 -0.04117786 -0.05061841 -0.10396803 -0.04799826
0.25535247 -0.06407116
00000000: a206 923d d540 69bd c3a5 513d e513 c1bc
00000010: 1eaa 28bd 4055 4fbd 31ed d4bd d399 44bd
00000020: 8fbd 823e be37 83bd
